models/1000-25.pth (torch, 965960 bytes, 6 tensors)

conv1.weight f4 [128, 3, 9, 9]
00000000: d2ad 6e3c 0122 0cbd dd0e 71bd 054e acbc
00000010: 4309 3b3d 96b4 c1bc e980 a23b b0c7 c13c
00000020: 7368 e83a 6ff5 d33c 3662 d13b 17c3 283d
00000030: 8f21 06bd f002 653c 32f0 3d3d ac0b 1dbd
00000040: 7455 0bbc 2064 5cbd 792c 26bd 018a 4a3c
00000050: 63ea 89bd d4db ac3c c145 50bd 495d 503c
00000060: a78c 2abc ab98 7bbd 2699 1e3d 251f 48bd
00000070: e43f 1f3c 6a35 36bd 6aec 293b 7a12 20bd
00000080: 392f a6bc 893c a63c 66b6 97bc ace2 f33c
00000090: 9722 883b 01ad aabb 1ade 3d3d 058c 8f3a
000000a0: 32db 143d 3085 85bd a860 8fbd 5953 2a3d
000000b0: afd2 38bd f8d9 e4bc da26 77bd b1bb 3abd
000000c0: 9300 713d 1483 9c3c bc76 7c3b 6e30 6cbd
000000d0: 3993 5dbd 2cbf ef3c b5b4 683c 0123 6cbd
000000e0: 317e 9fbc 5316 03bd 3fa5 073c f2cf 60bd
000000f0: 5062 003d e22f 003d 469f 3abd 0813 22bd
00000100: 44bc 933c 91b5 c23c ceda b13c f2fa 38bd
00000110: 15d0 533d cd5c 00bd 870e ff3c 5db2 083d
00000120: 3801 0abd f306 6c3b 9c8d 75bc 2757 6f3d
00000130: 0a24 233c 509e 063d c67d 2abd 37a4 303d
00000140: 17af 713d d8fd b93b 2996 4ebd e7a4 f43c
00000150: 46fc 5fbd 3cbe 8fbd 0698 2c3c 98a1 5fba
00000160: adba 69bd 0c34 753c 24c1 f93c 2fc0 4f3c
00000170: 2cac a8bc d38a 843c 3899 bebc ed48 3fbb
00000180: 68f6 39bd 9498 513d 7e0b be3c 992a 55bd
00000190: 70d9 1b3d 05d4 78bd a4ba 37bc 97f2 93bd
000001a0: c37f b93c 05da 213d 0025 cabb 85b7 82bd
000001b0: 55b5 06bd 1656 ac3c d5b2 5cbd 5490 67bd
000001c0: d029 a8bc 1020 8dbd 6213 8e3c 5c01 01bd
000001d0: e7e0 bdbc 687c babc 67c4 8abd b9cf 673c
000001e0: 4e66 bdbc 3192 e5b9 b5a0 2cbd 6e51 2f3c
000001f0: d851 3fbd e67e 113d 9d1a 753b 2af2 3f3d
00000200: 1ccc e93c 1a94 4cbc 42be 9f3c 672c 503b
00000210: 9a53 ac3b fc47 81bd 224c 553c df12 afbb
00000220: ca47 92bc 5607 8ebd 51b2 13bc 9fa5 88bd
00000230: e3d9 90bd 84ef c4bc faed e5b9 8fb2 bebc
00000240: dcb5 e9bc 9834 9f3c 0704 1abd 15d1 07bc
00000250: eff6 a23c 3f5f e43c 9ea6 53bd cbeb 80bc
00000260: 51c5 053d 707f 35bd 3ddd 8abd 3f21 38bd
00000270: bed6 e4bb 7cd0 babc 8e9a 4ebd cf78 2b3d
00000280: 1eb9 70bd 5c30 7bbc 7427 e6bc 7f01 0dbc
00000290: 9060 85bd c8c9 67bd 91bb acbc 31f5 4dbd
000002a0: 7e45 eb3b fb1d f9ba bc54 04bd c185 b83c
000002b0: f82e ed3b 94cd febc 6b87 41bd 2a17 24bd
000002c0: 8d56 98bd bc6f eebc b20c 93bd b99f 64bd
000002d0: 1f2f 00bd 5d4d d8bc 711c 97bd b238 2fbd
000002e0: 3679 4abd 0804 32bd e4af 403d 6568 f1bc
000002f0: a95a af3c 886a 033d f484 91bd b68b 4c3c
00000300: 4409 6bbd a371 863c 181f 7d3c 818f c2bc
00000310: 8101 a6ba 2f80 123d cf73 0fbd 9896 523b
00000320: f466 93bd 0ca4 23bd 34d1 7abd 1915 7b39
00000330: b35d 57bd c2db 453c 078f 033d 1429 3b3d
00000340: 8aa0 93bd 5501 2e3d d8f2 283d b6fa 9fbc
00000350: 5078 9fbd 1ee6 093a b2bb 873c 9f89 14bd
00000360: a5b3 e5bc a42d 04bd f21f 303c 87d5 05bd
00000370: 092b 43bd a0bb 4a3d 900d 1f3d a58a 82bd
00000380: 9586 edbc 7ce5 673b 27f3 403d 1610 c2bc
00000390: 833d 2f3d 9bb7 3cbd 5588 86bd 5bfd 09bd
000003a0: c837 553d 4280 13bd a9f6 30bd ec02 523c
000003b0: 8af9 22bd 2edb 21bd b4b1 d2bc 7ede 0abd
000003c0: b9cb c5bc 1c44 cd3b 718e 9dbb 5ea1 bf3c
000003d0: cb00 a33c 6fab 05bd 167e eebc 374b 123d
000003e0: 02b0 ad3c 17c1 8fbc 67f1 41bd 20cc b53c
000003f0: 7012 a7bd 4a56 993b ff01 d9bc 9691 b8bc
0.014567809 -0.034212116 -0.058852065 -0.021033296 0.04566313 -0.02364568 0.004959215 0.023654789
0.0017731324 0.025873868 0.0063898815 0.041201677 -0.032746848 0.013977751 0.046371646 -0.03834121
-0.00850426 -0.053806424 -0.040569756 0.012362004 -0.06734159 0.021100916 -0.050847773 0.012717553
-0.010409511 -0.061424892 0.038720272 -0.048857827 0.009719823 -0.044484533 0.0025928267 -0.03908012
-0.02028619 0.020292537 -0.018519592 0.029771172 0.004154514 -0.005208612 0.04635439 0.0010951763
0.036341853 -0.06519544 -0.070008576 0.041583393 -0.0451228 -0.027935967 -0.060339786 -0.045589153
0.05883844 0.019105472 0.003852292 -0.057663374 -0.05409548 0.029265963 0.01420324 -0.05765057
-0.019469352 -0.032003712 0.008279144 -0.054885812 0.031343758 0.031295665 -0.04556205 -0.03956893
0.018034108 0.023768218 0.02171078 -0.045161195 0.051712114 -0.0313385 0.031134857 0.033373225
-0.03369257 0.0036014884 -0.014987376 0.058432724 0.009957323 0.032865822 -0.041623853 0.043125357
0.05900487 0.0056760125 -0.050436173 0.029863788 -0.054683946 -0.07018706 0.010534292 -0.0008530854
-0.057062794 0.014966022 0.030487604 0.0126800975 -0.02058991 0.016179478 -0.02326642 -0.0029187754
-0.045401007 0.0511709 0.02319884 -0.052042577 0.03804916 -0.060749073 -0.011213932 -0.07224005
0.02264393 0.03951456 -0.0061689615 -0.0638266 -0.032887775 0.021037143 -0.053881485 -0.056534126
-0.02052775 -0.06890881 0.017343227 -0.031495437 -0.02317853 -0.0227644 -0.06775742 0.014148646
-0.023120072 -0.00043787205 -0.04214545 0.010700567 -0.04670891 0.03552141 0.0037399896 0.046861805
0.02853971 -0.012486482 0.019499902 0.0031764747 0.0052589895 -0.06312558 0.01301864 -0.005342826
-0.017856497 -0.06934993 -0.009014682 -0.06672215 -0.070728086 -0.024039991 -0.0004385559 -0.023278503
-0.0285291 0.019434258 -0.037601497 -0.008289595 0.019893138 0.027877448 -0.05167257 -0.015737435
0.03265888 -0.044310987 -0.06780479 -0.04495358 -0.006983607 -0.022804491 -0.050440364 0.04186326
-0.05877029 -0.015331354 -0.028094985 -0.008606314 -0.065125585 -0.056588918 -0.021085532 -0.05028266
0.007179915 -0.0019006127 -0.03230737 0.022524716 0.007238265 -0.031103887 -0.047248285 -0.040061153
-0.07438383 -0.029106013 -0.07180156 -0.055816386 -0.03129494 -0.026404077 -0.07378472 -0.04277868
-0.049432002 -0.043460876 0.047042742 -0.029468725 0.021405535 0.032084018 -0.07105437 0.012484482
-0.057381883 0.016411608 0.015449308 -0.023750069 -0.0012665243 0.035766777 -0.035022553 0.0032133218
-0.07197371 -0.03995137 -0.061234668 0.00023945085 -0.052579593 0.01207632 0.032118823 0.045693472
-0.07208355 0.04248174 0.04124722 -0.019528728 -0.0778662 0.00052604254 0.016568992 -0.03626406
-0.028039763 -0.03227009 0.010749804 -0.03267434 -0.047648463 0.04949534 0.038831294 -0.063741006
-0.028994838 0.0035384586 0.04710689 -0.023689311 0.04278327 -0.046073537 -0.06568972 -0.033688884
0.05205515 -0.036010988 -0.043203983 0.012818079 -0.03978876 -0.039515667 -0.025719501 -0.03390359
-0.024144994 0.006264223 -0.00480824 0.023392376 0.019897839 -0.032634195 -0.029112857 0.03571626
0.021202091 -0.017548127 -0.04734936 0.022192061 -0.081578135 0.004679476 -0.02649021 -0.022530358

conv1.bias f4 [128]
00000000: 7f1a bc3c cb85 fe39 c78c 9abc 836d f3bc
00000010: 884d 16bd 100f 4abd 9f73 70bd 5e4e f6bc
00000020: da7d bfbd c4cd f5bc 6bbb d5bb 476f 14bd
00000030: ac53 6cbc b062 52bd d18b 39bd ec5f 143d
00000040: 2588 e03c 08a3 3cbb 5dc4 71bd 1539 b1bd
00000050: a244 08bd 04e7 49bd ce31 d33a 62b5 85bc
00000060: a2df a9bc dec2 623c 856c 8ebd f717 e0bd
00000070: cf6d 1b3b 07a6 bf3c abcc 8abd db4f aabb
00000080: 6c47 963c e327 703d 9220 ed3c d67d 85bd
00000090: 3a3c 70bd edda fd3c efb6 103d 3893 2a3c
000000a0: 6120 a33c a6ee 70bd fcdc 53bd 79b6 c43c
000000b0: 1566 e9bc 7a8f 0f3d a1fd 0c3d 7ca0 92bc
000000c0: 7e58 1e3b 9160 7fbc c49e 24bd 181c 37bd
000000d0: 929d 73bc f702 1d3e f4e6 a13d 58cd e63c
000000e0: 702f 813d efa5 dd3c 0c1c d53c 06c9 3abc
000000f0: c911 853a 2680 91bc 63b8 04bc a97d 3f3b
00000100: a1d0 7abd 3ded 64bb e7db 743b 799a 7d3c
00000110: e482 14bd 597f 8bbd 13f1 9e3c 0c83 983d
00000120: 820c 13bc b06d 213d b006 b0bc ca8e 563c
00000130: 5157 963c db0e 63bd feaa 23ba a5ee 25bd
00000140: 08d3 423c 44a4 9dbc f717 cbbc 5618 cc3c
00000150: e7ba 58ba 9a15 c6bc 6a36 0c3d e10e d63c
00000160: bb35 f2bc 5a0b 7f3d af53 9d3a f85d b43b
00000170: c2ea 2fbd b08d 79bd 9143 17bd fe96 713d
00000180: 6dda 44bd 66e9 0e3c 93b5 bfbc 8a79 b23d
00000190: 66b4 36bd 683c 83bb 589a 0cbc ff8f 17bd
000001a0: 4a77 18bc 4d4f 80bc f454 4bbd 8b3e d93c
000001b0: 3bf7 083d b9ed 43bc 65ab ac3c 8840 51bd
000001c0: 3898 2dbd 8ba1 46bd 3237 5bbd a8d3 5b3d
000001d0: 0bc9 4dbd d829 733b c641 c53c d921 7d3c
000001e0: 0133 82ba 1c89 803d 078f 9a3c 14aa babc
000001f0: ac91 01bd a0aa 7fbd 4fe1 4d3c d166 23bb
0.022961853 0.0004854634 -0.018865956 -0.029715305 -0.036695033 -0.04933077 -0.058704015 -0.030066665
-0.09350176 -0.030005343 -0.006522586 -0.036238935 -0.014424246 -0.051363647 -0.045299355 0.03622429
0.027408669 -0.0028783698 -0.059025157 -0.08653466 -0.03326858 -0.04929258 0.0016112865 -0.016321842
-0.02073652 0.013840405 -0.06954292 -0.10942071 0.0023716574 0.023394598 -0.067773186 -0.005197508
0.018344603 0.05863179 0.028946195 -0.06518142 -0.058651187 0.030988181 0.03533071 0.010411076
0.0199129 -0.058821343 -0.05172442 0.024012791 -0.02849106 0.03504894 0.034421567 -0.01789879
0.0024161632 -0.015586988 -0.040190473 -0.044704527 -0.014869111 0.15333162 0.07905379 0.028174087
0.06307876 0.027056662 0.02601435 -0.011400467 0.0010152395 -0.017761301 -0.008100602 0.0029219186
-0.06123412 -0.0034931444 0.0037362517 0.015478724 -0.03625764 -0.06811399 0.019402063 0.0744687
-0.00897515 0.039411247 -0.021487564 0.013095567 0.018352183 -0.05543409 -0.00062434364 -0.040510792
0.011891134 -0.019243367 -0.0247917 0.024913948 -0.0008267597 -0.024180222 0.03423158 0.026130142
-0.029566636 0.062266685 0.0012003089 0.005504366 -0.042948492 -0.06092614 -0.03692967 0.058981888
-0.04805987 0.008722639 -0.023402011 0.08714588 -0.044605635 -0.0040050037 -0.00858172 -0.03700256
-0.0093057845 -0.015662814 -0.049641564 0.02651908 0.033438902 -0.011958533 0.021077821 -0.051086932
-0.042381495 -0.048493903 -0.053519435 0.053668648 -0.050240558 0.0037103798 0.024079215 0.015449964
-0.0009933413 0.062761515 0.018867029 -0.022786178 -0.031633064 -0.06241858 0.012565925 -0.002493311

conv2.weight f4 [64, 128, 5, 5]
00000000: 98f3 93bb db62 a3bc 320d 4cbc ae19 a43b
00000010: b735 9d3b 4ae1 a3bc ad76 0fbc fbb6 5abb
00000020: 0b92 99bc 5f95 efbb 69b1 e63b 8063 8fbc
00000030: f8c3 46bc 949b 8ebb f827 353c e800 26bc
00000040: 934d b73b 3f0a 90bc 3116 28bc 3573 263b
00000050: bd06 193a 06fa 66bc 4ac4 8abc 1dba dd3b
00000060: 056e b5bc 5fd8 99bc bcdf 083c b0bf 103c
00000070: e4b4 0d3c 0f2c 1cbc e550 54bb da0e 29bc
00000080: 1d6f 133c 73d1 aabc b80e c13a d201 65bc
00000090: 7f0e 5dbc 79fc 89bc fb41 353c f80c 9d37
000000a0: 1fa3 b1bc 5337 0f3c c663 8ebc 7cdd d1bb
000000b0: 57a3 59bc e9e7 11bc 45f6 2c3c 348a a23b
000000c0: a6ae 933a ea7e b2ba 5f69 1d3b bef9 acbc
000000d0: 666f b33b 5400 8dbb 4f79 f7bb 4890 8dbc
000000e0: 1d7d aeba 558e f6bb 64da 833b 8824 1e3a
000000f0: db72 e0ba 2cdf b2bc 12e4 acbc eb53 1ebc
00000100: 398f babc d53c 42bb a6fc 0dbc 1d06 fa3b
00000110: bebd babc 743f 1f3c 7091 953b 25f8 eebb
00000120: 0833 cd3b cb09 a4bc 8e02 c0bc 779b 0dbb
00000130: 242f f9bb 25a6 8dbc fd38 90bc 301e 0e3b
00000140: 7a13 6f3a 4568 8dbb c937 54bc 4c58 7fbb
00000150: 7e7a ce3b 3296 753a 769b 3c3c 9bc6 95bc
00000160: bb34 dcb8 410a 3c3c a09f f0bb 0a1a aebc
00000170: 7dc6 84bc 366d dc3b 31f0 efbb 4fc1 833b
00000180: a1de d9bb 1707 173c 3abc f63b 6439 303c
00000190: 2653 8bbc 7ddd 0bbc 7591 f43b 6e4d a1bc
000001a0: 77c2 ea3b 62e9 6b3b 16cd b53b d062 8ebc
000001b0: 549f 94bb 0e95 85bc 95c6 e33a d1d8 3e3b
000001c0: 5290 8cbc f32d 5c3b 59e6 3c3b 14c0 1ebc
000001d0: c4f4 62b9 6a99 8bbb 5799 873b cc01 a9bc
000001e0: 108f 88bc 6c60 e239 7ec4 17bc fb91 cb3b
000001f0: 9d66 c139 86c7 25bc 0762 07bc 95be ebbb
00000200: 47d8 063c 1914 eb3b 0466 23bc a253 bcbc
00000210: 9406 acbc 729c 3e3c 93cb acbb 0e91 bfbc
00000220: 3e64 b2bc b4ff 3dbb 6660 b6bc 4193 6fbb
00000230: 40b0 743b 85d0 353b e84c 24bb aed0 0c3c
00000240: 3b01 98bc 1252 cb3b 3955 233c 832f f73b
00000250: bf4c 8c3b 491c 1e3c 9bd3 323c f83f 163c
00000260: 47c9 92bc 3c5f d1ba fe78 9cbc e4f0 2fbb
00000270: b935 97bc 519e 6a3b a83a 30bc 140f a7bc
00000280: 74da b2bc ab14 19bc 92f0 083c d892 c33b
00000290: 97c2 cdbb 139a febb f3a0 ff3b 312d fa3b
000002a0: 6a62 66bb b372 183c 4433 053c 4254 eeba
000002b0: 3af5 a0bc 4939 7bbc 6700 a3bb 6dfc 2b3c
000002c0: bea6 5dba 3a71 263c b017 93bb fdee 863a
000002d0: 6af0 6c3a 501b bbbc edde b03b 78ad 213c
000002e0: 3670 913a a96e fabb 13e8 fabb 678b 9b3b
000002f0: fb17 fa3b 0291 1d3c 65a1 aebc 0b86 14bc
00000300: 2563 093c 7511 ef3b e24b 50bb 31a1 dc3a
00000310: 90d0 b0bc ac80 9eba 9f3e 4bbc c6ac acbc
00000320: 7d5e f13b 39b3 83bc cf77 2f3c 038d 23bb
00000330: 16aa a1bc 9cf5 b9bc b3a9 e23b 6ff3 4cba
00000340: a3d6 b7bc e2c1 ab3b 88b5 b7bc 8d6e e83b
00000350: af00 703b 9309 a4bc 8df9 e83a 9468 903b
00000360: a0b5 5cbc ebb7 94bb 8090 863b c1f6 1bbc
00000370: 0381 3ebc 4772 093b 5c81 bcbc d22d 5dbc
00000380: 0f55 70bc 096f 82bc bf94 9bba d3cc bcbc
00000390: 4a2b 0d3c 56c8 bfbc a0b1 6d3b a055 9bbb
000003a0: 3ca1 4dbc 06ea 1b3a 06d0 28bb 90e6 97bc
000003b0: 8fd4 a0bc 9144 10bc 00d4 de3b b8c9 7bbc
000003c0: 8c63 e03b dd0a 14bb aa85 3ebc b3d8 c3bb
000003d0: 91fe 183c b9ac 9cbb 66e4 b4bb bfe9 353c
000003e0: 085c 96bc 9b9f 4cbc ff26 4bbc 4dfd 01bc
000003f0: c71a f6bb 14c2 2d3c 58aa 13bc f950 afbc
-0.0045151226 -0.019944599 -0.012454318 0.005007944 0.004797663 -0.020004887 -0.008756322 -0.0033373225
-0.018746397 -0.0073115076 0.007040192 -0.0175035 -0.0121316835 -0.0043520425 0.011056893 -0.010132052
0.0055939644 -0.01758301 -0.010259197 0.0025398259 0.0005837491 -0.014097696 -0.016939301 0.006766571
-0.022147188 -0.018779932 0.008354124 0.008834764 0.008649085 -0.009531989 -0.003239685 -0.010318482
0.008998659 -0.020851826 0.0014729118 -0.013977485 -0.013492226 -0.016844021 0.011063094 1.8721898e-05
-0.021684228 0.008741218 -0.01738156 -0.006404577 -0.013283572 -0.008905389 0.010556762 0.0049603228
0.0011267259 -0.0013618146 0.0024019105 -0.02111518 0.005475926 -0.0043030176 -0.007552303 -0.017280713
-0.0013312433 -0.0075242915 0.004023837 0.0006032665 -0.0017124073 -0.021834932 -0.021104846 -0.009663562
-0.022773372 -0.002963831 -0.008666193 0.0076301233 -0.022795554 0.009719718 0.0045644566 -0.0072927647
0.006262187 -0.0200242 -0.023438718 -0.0021607557 -0.0076044966 -0.017291138 -0.0176053 0.0021685474
0.00091200287 -0.0043154084 -0.012952753 -0.003896254 0.0063012233 0.0009368389 0.011511674 -0.018283179
-0.00010500239 0.011477054 -0.0073432475 -0.02125265 -0.016207928 0.006726886 -0.007322334 0.004020847
-0.006648854 0.009217999 0.0075297626 0.0107558705 -0.017007422 -0.008536694 0.007463629 -0.019690242
0.0071642953 0.0035997261 0.00554813 -0.017381102 -0.004535595 -0.016306426 0.0017377908 0.0029120932
-0.017158661 0.0033596724 0.0028823821 -0.00968935 -0.00021644222 -0.0042602317 0.0041381526 -0.02063074
-0.01666978 0.0004317792 -0.009263156 0.0062124706 0.00036888281 -0.010118371 -0.008263118 -0.00719435
0.0082302755 0.0071740267 -0.009973053 -0.022989098 -0.02099923 0.011633979 -0.0052732914 -0.023384597
-0.021776315 -0.0028991522 -0.022262763 -0.0036556276 0.0037336498 0.0027742696 -0.0025070254 0.008594675
-0.018555274 0.006204852 0.009969049 0.0075435056 0.00428161 0.009650298 0.0109147085 0.009170525
-0.017918242 -0.0015973817 -0.019100662 -0.0026846463 -0.018458234 0.003579993 -0.010756172 -0.020392932
-0.021832682 -0.0093433065 0.008358138 0.005968433 -0.0062793004 -0.007769832 0.007801169 0.0076347818
-0.0035153874 0.00930469 0.008129898 -0.001818307 -0.019648183 -0.015333482 -0.004974413 0.010497195
-0.00084553275 0.010158831 -0.0044889078 0.0010294613 0.000903851 -0.022840172 0.0053976686 0.009868018
0.0011096064 -0.0076425862 -0.00765706 0.0047468427 0.007632253 0.009617092 -0.021317193 -0.009065161
0.008385454 0.007295782 -0.003178351 0.0016832707 -0.021583825 -0.001209279 -0.012405067 -0.021078479
0.007366 -0.016076671 0.010709717 -0.0024955876 -0.019734424 -0.022700123 0.0069172024 -0.0007818257
-0.022441214 0.0052416185 -0.022425428 0.007093257 0.0036621501 -0.020024097 0.0017774567 0.004406998
-0.013471037 -0.0045385263 0.004106581 -0.00951928 -0.0116274385 0.0020972656 -0.023010902 -0.013499694
-0.014668717 -0.015922086 -0.0011869891 -0.023046887 0.008616278 -0.023410957 0.0036269203 -0.004740432
-0.012550648 0.0005947653 -0.0025758757 -0.018542558 -0.019632606 -0.00880541 0.0068001747 -0.015367918
0.0068478044 -0.0022589483 -0.011628548 -0.0059767603 0.009338037 -0.0047813323 -0.0055203913 0.011103093
-0.01835443 -0.012489225 -0.012399434 -0.007933927 -0.0075105163 0.010605354 -0.009012781 -0.021400915

conv2.bias f4 [64]
00000000: b66a 3ebc 6247 0b3c 52be 5bbc e1ae 53bb
00000010: 60f1 95bc 019e 17bd ec20 253a 7205 cabc
00000020: 4557 91ba d64f 8e3b 4879 3a3c 50ea 5e3a
00000030: 3d9c b5bc 13cb aabc c225 22bc f11f 9dbc
00000040: d598 113a e90d a7bc d93c 47ba 171a 873b
00000050: b035 eabc 0197 0abd 277f 63bc ae6c 13bd
00000060: e24c 5cbc be5d 6a3b fbd7 89bb 07f6 403a
00000070: a977 50bc a94a 1d3c a6c1 83bc 2920 89bc
00000080: 3273 37bc 90c0 a4bc b5df 1b3c 2005 3abc
00000090: f26a 1d3b e224 0c3c 3659 4fbc c198 7c3b
000000a0: 891f 84bc fb1f c8bb af03 dabc 06a2 c8bc
000000b0: 34a7 73bb 53cf a83b 0da8 3cbc d362 a03b
000000c0: 8eb0 6cbc 7264 55bd e0f1 9abc 7d94 333c
000000d0: b43d ad3b 2725 093c 8abb f8bb f582 b3bc
000000e0: b1f7 76bc 8035 46bc 7be4 0bbd 5c8b d0ba
000000f0: 5736 1a3c fe48 a83b 4b0d 31bc a7a5 9bbd
-0.011622122 0.008500906 -0.013412075 -0.003230028 -0.018303573 -0.03701592 0.0006299156 -0.0246608
-0.001108863 0.0043430133 0.011381455 0.0008503543 -0.022169227 -0.020848786 -0.0098966975 -0.01918027
0.0005554085 -0.020392375 -0.00076003146 0.004122983 -0.028590053 -0.033835415 -0.013885296 -0.035992317
-0.013446065 0.003576144 -0.004206655 0.00073608797 -0.012723842 0.00960032 -0.01608355 -0.016738968
-0.011196898 -0.020111352 0.009513785 -0.011353761 0.0024020043 0.008553715 -0.012655547 0.0038543197
-0.016128318 -0.006107328 -0.026613085 -0.024491321 -0.0037178518 0.005151668 -0.011514676 0.0048945933
-0.014446391 -0.052097745 -0.018914163 0.010960695 0.0052868966 0.008370674 -0.007590716 -0.021913031
-0.015073703 -0.012097716 -0.034153443 -0.0015910673 0.00941237 0.0051356545 -0.010806392 -0.07599955

conv3.weight f4 [3, 64, 5, 5]
00000000: 7b7e 153b d01c 68bc aa9f 54bc 9639 a63b
00000010: 058b 26bc 2ce2 cdba 8a0c 003c c6dc 86bb
00000020: 15af 0c3c 9978 0a3c bc1a 8a3c c414 37bc
00000030: e753 d73c 2748 f63c d9e2 4cbb b8f5 37bc
00000040: 027c 22bc e899 73bc dcbf a23c 5dfb 2c3c
00000050: 5e4d 23bb 93ac ba3b 2ebd 6abc 66b5 e1bb
00000060: 2793 683c 576c 893b 3a33 b4bc 7185 9b3b
00000070: 31e5 aebc 3af4 6abc f1c0 6a3c e790 56bc
00000080: 6996 8c3c 152e 9d3b c69c 733c 5035 acbc
00000090: df36 9a3c 07eb e03b 87fc 593c 9493 083a
000000a0: f577 98bc 8997 c63c 2bf3 f1bb e7d3 c33c
000000b0: 95a1 923b 9b36 a1bc 5d92 90bc 027a b73b
000000c0: bbd2 d13b bc2f 8fbc bdf9 abbb 348c 19bc
000000d0: 018d c03a fec4 c9bc 5c72 9dbc 64f5 12bd
000000e0: c70d dfbc feb8 b2bc 9d35 05bb df38 52bc
000000f0: df9e d0bc e552 6a3c 94a5 30ba b744 86bb
00000100: 5274 98bc d67d 21b8 5929 78bc 78f9 82bc
00000110: 67f1 9fbc c4e7 6abc cb33 fdbc 6064 333c
00000120: 0e94 26bc 70a7 eabc a24d 15bd e9f7 b5bc
00000130: a11a 783c e6ee 2c3b 1ec0 21bc df79 873b
00000140: a132 ddbc 112a 8abb 6da8 b33b 3003 fcba
00000150: a218 4ebc 374d 313c a67f e0b9 8b58 7ebc
00000160: 4c27 523c ae61 6bbb 2887 80bc 34f1 c6bc
00000170: 9558 b13c efab a43b 8fc4 82bc d2dd ab3c
00000180: c341 093b 47cc 48bc a1dd 85bc 9627 f2bc
00000190: 1a52 363c 9697 5c3c 5edc 4cbc f104 49bc
000001a0: 40d1 c1bc 9a9f 87bc 4e9c 533c 8fb6 abbc
000001b0: 163d a8ba aa74 1f3c 230e cebc c41f b4bc
000001c0: 6e1d c13c 3f3e 8fbc 111b 823b 9257 9c3b
000001d0: fdd4 b9bb 4b7b 56bc e0b0 593c af31 163c
000001e0: 3b0f 613c 3bdc 9c3b 740a 843c 0e81 4e3c
000001f0: 2965 173c ff0a 5d39 8d27 e2bc 45ac a0bc
00000200: c6db cbb8 4501 9d3c 1df4 d5ba 87bb 85bc
00000210: a239 04bc ca49 8dbc 45a9 833c 694d 24bc
00000220: 090a c63b 8f9f f0bb c8ce 1abd d6a0 cebc
00000230: 88fe fbbc 6d41 8bbc c4e9 6a3b 9799 0cbc
00000240: 45b4 d8bb a21b 143c 2ed7 88bc 9ea5 27bc
00000250: 326b ac3c e5b4 aeba 0522 c0bc 36a7 a1bc
00000260: 4c75 ea3b 9531 b1bc 6c16 9d3a 1fe2 5d3c
00000270: 7f6a 9a3c f72f 9f3c 0e65 5c3c f2fc 803c
00000280: 3c2d 913b a3d3 5ebc 135a 5b3c f660 b73b
00000290: 419a eabb 7fa4 cabc 6b7c 78bc 8f7a a3bb
000002a0: 1fb1 7cbc fba3 e8bc ce5a 87bc 23ec 2dbc
000002b0: 72a9 fc3b c87a 713c 91a2 a63c cf71 8abc
000002c0: 53c7 a43c f25a de3c b286 b6bb 7263 efba
000002d0: 5241 bfbb feac c8bc d9a0 803c 6e70 893c
000002e0: 1741 75bc 750b d8bc 1d8d bdbc ce9d 973c
000002f0: ec57 1b3b ca06 393c 6bf2 d0bc 3dc6 02bc
00000300: c6df 953c 4a4f a53c e7f9 d7bb 75e5 28bc
00000310: 18e9 d2bb e76a 973c 364a c73b 7401 76ba
00000320: a81b aa3c 70b0 773c 02b1 833a 34ea 6fbc
00000330: f492 de3a 27e1 f73b e2ef aa3c a3d7 8bbc
00000340: f5b2 8a3c 8572 fa3c ec7f e53b c384 3a3c
00000350: 63aa e9bb 10c0 56bc 58eb 413c f28a 513a
00000360: b6d4 7abb ae5a 87bc 488f 553c 7e92 4bbc
00000370: 9155 c33c ce0a fa3c ca0a 263c c9df a53c
00000380: e097 493c 2cbf bb3b 9338 e73c cfc1 ee3c
00000390: 28d8 503c 8e0f 8fbc b322 ec3c 55f7 143d
000003a0: f193 b03c d841 0a3d 4a84 c13c 5177 b23b
000003b0: 0a37 483c 7a65 aa3c 01cb 173d 5f7c c43b
000003c0: 254d d23b a776 db3b c50c 9a3c f398 ab3c
000003d0: 2a28 813c b9ab a5bc 47c7 a83c 8962 afbc
000003e0: 6f5d 023c 8515 eebc 2167 e93c 5f92 40bb
000003f0: 4ae6 663c 6e93 f7ba 9835 773b 4d9a 3bbb
0.0022810984 -0.014167026 -0.01297752 0.0050727827 -0.010164981 -0.0015707663 0.00781549 -0.0041156737
0.008586665 0.008451604 0.016858451 -0.0111743845 0.026285125 0.030063702 -0.0031263141 -0.0112280175
-0.009917261 -0.014868237 0.019866876 0.010557977 -0.002491794 0.005696842 -0.0143273305 -0.0068880795
0.01419524 0.0041938233 -0.021997083 0.004746132 -0.021349521 -0.014340455 0.014328227 -0.013096071
0.017161565 0.004796753 0.014868921 -0.021021515 0.018824993 0.006863955 0.013304836 0.0005209979
-0.018611887 0.02424218 -0.007383724 0.023904754 0.0044748285 -0.019679358 -0.017647916 0.0055992613
0.006403295 -0.017478816 -0.005248277 -0.009371806 0.001469046 -0.024630066 -0.01921957 -0.035878554
-0.02722825 -0.021816727 -0.0020326145 -0.012830942 -0.02546638 0.01430199 -0.000673854 -0.004097547
-0.018610153 -3.8502585e-05 -0.015146577 -0.015988097 -0.01952429 -0.014337484 -0.030908486 0.010949224
-0.010167135 -0.028644294 -0.03645099 -0.02221294 0.015143068 0.0026387512 -0.009872464 0.004134401
-0.02700168 -0.0042164405 0.0054827244 -0.0019227024 -0.012579115 0.010821632 -0.00042819715 -0.01552404
0.012826752 -0.0035916376 -0.015689448 -0.024284936 0.021648685 0.005025379 -0.015962867 0.020979796
0.0020943738 -0.012255735 -0.016341032 -0.029559892 0.011127973 0.013463875 -0.0125037115 -0.0122692445
-0.023659348 -0.016555596 0.012915684 -0.020961074 -0.0012835588 0.009732405 -0.025153225 -0.021987803
0.023573603 -0.017485736 0.0039705117 0.0047711814 -0.005671142 -0.013090919 0.013286799 0.009167119
0.013736541 0.0047869957 0.016118266 0.012604011 0.009240427 0.00021080299 -0.02760675 -0.019613395
-9.72073e-05 0.019165644 -0.0016323362 -0.016324772 -0.008070381 -0.0172471 0.016071925 -0.010028222
0.0060436768 -0.0073432396 -0.03779486 -0.025223177 -0.030761018 -0.01699897 0.0035844902 -0.008581541
-0.0066132867 0.009039791 -0.016704168 -0.010232357 0.021047208 -0.0013329057 -0.023453722 -0.019733053
0.007155096 -0.021630088 0.0011984832 0.013542681 0.01884961 0.019432051 0.013451828 0.015745614
0.004430441 -0.013600263 0.013388175 0.0055962754 -0.007159502 -0.024736641 -0.015166382 -0.0049889754
-0.015423088 -0.028398504 -0.016522791 -0.010615381 0.007710629 0.014738746 0.02034119 -0.016899971
0.020114576 0.027142975 -0.005570256 -0.001826389 -0.005836644 -0.024496552 0.015701698 0.016777243
-0.014969132 -0.02637265 -0.023138577 0.018507864 0.0023703529 0.011293123 -0.025506219 -0.007981834
0.01829518 0.02017941 -0.00659107 -0.010308613 -0.0064364783 0.018483592 0.0060818447 -0.0009384372
0.02076514 0.01511775 0.0010047259 -0.014643241 0.0016981051 0.007564682 0.020866338 -0.017070597
0.016931036 0.030572185 0.007003775 0.011384192 -0.0071309074 -0.013107315 0.0118358955 0.0007993422
-0.0038273758 -0.016522732 0.013034649 -0.012425063 0.023844512 0.03052273 0.010134408 0.02024831
0.012304276 0.0057295766 0.028225219 0.02914515 0.012746848 -0.017463472 0.02882514 0.036368687
0.021554919 0.0337542 0.02362265 0.0054463525 0.012220154 0.02080034 0.037058834 0.0059962715
0.0064178878 0.006697494 0.018804917 0.020946955 0.015766222 -0.020223485 0.020602835 -0.02140929
0.007956847 -0.029062996 0.028491559 -0.002938412 0.014092991 -0.0018888542 0.0037721153 -0.0028625906

conv3.bias f4 [3]
00000000: 80a3 9f3c 06fc ca3c 7113 b93c
0.019487143 0.024778377 0.022592278
