models/1000-1800.pth (torch, 966300 bytes, 6 tensors)

conv1.weight f4 [128, 3, 9, 9]
000000 68 3c 10 bc c0 10 e2 bc cc e9 72 bd cd 64 18 bd
       -0.0088034645 -0.027595878 -0.059304997 -0.037205506
000010 bf 50 5f bc 33 48 e6 bd 2b 2a 97 bd 1b 9a 09 bd
       -0.013630091 -0.1124424 -0.0738109 -0.033594232
000020 66 13 af bc 7f 5d a9 bc 76 15 03 bc a6 aa 41 3d
       -0.021371555 -0.020674465 -0.008000722 0.047281884
000030 b0 63 03 3b 37 2f 45 3d 03 22 66 3d ad 3d 29 bd
       0.0020048432 0.04814073 0.05618478 -0.041318584
000040 5a d9 e9 bc 62 b6 a3 bd a7 ad f4 bd 1e af 9f bc
       -0.028546024 -0.07993771 -0.11947184 -0.019492682
000050 aa 0b 24 bd ea d0 04 3e 76 9e cc 3d 6d 49 10 3e
       -0.040050186 0.1297032 0.099911615 0.1409051
000060 6e ea 8d 3d f1 7c 63 bd d3 ee 82 bc 86 26 5e be
       0.069294795 -0.055539075 -0.01598302 -0.21694383
000070 1f 5c d8 bd a7 2e a1 bd 09 9b a8 3d 20 5a de 3d
       -0.10564446 -0.07870226 0.082326956 0.10857034
000080 52 0a d0 3d ca d1 83 3d 0e 1e ba bd 27 d0 0e be
       0.101582184 0.064364985 -0.09087764 -0.13946591
000090 0c 74 44 bd 6f 67 89 bc 05 9d ea 3d 11 c7 40 3e
       -0.047962233 -0.016772954 0.1145573 0.18825938
0000a0 fb b8 9d 3e 6a 49 43 3e bd 41 de 3d 7e 96 d4 3d
       0.3080519 0.19070974 0.10852382 0.103802666
0000b0 7e e1 8b bd f2 f3 bb bd 81 a5 f7 bd 05 d0 8d bd
       -0.068301186 -0.09177388 -0.12092114 -0.06924442
0000c0 b7 08 fe 3d 3d 2f 20 3e 6b b2 09 3e 17 e1 6d 3c
       0.12404006 0.1564302 0.13446967 0.014518998
0000d0 c2 01 93 bd 5b 73 15 bd 63 0a 14 3d 8e 37 86 bd
       -0.0717807 -0.036486965 0.036142718 -0.06553565
0000e0 07 83 43 bd 1b 3b a4 bc fa 05 86 3d c8 69 14 3c
       -0.04773238 -0.020047715 0.06544109 0.009058423
0000f0 01 25 96 3d bd 30 06 3d ea 2d 15 bd cc fd 06 3d
       0.07331277 0.032761324 -0.03642074 0.032956883
000100 2b 4b fb 3c d6 04 25 bd 7f 94 6d bd 18 34 f1 bd
       0.030675491 -0.040287815 -0.058002945 -0.11777514
000110 58 2e 16 bc 4c ce a0 bd c7 34 13 bc 2f 5b 42 3d
       -0.009166323 -0.07851848 -0.008984751 0.04745024
000120 63 87 13 3e 19 20 ca 3d d7 6f 28 bd 03 7f 0f bd
       0.14407115 0.098694034 -0.041122284 -0.035033237
000130 72 a4 f4 bd 36 43 bd bd 2d 95 08 be 09 f3 f7 bb
       -0.11945428 -0.09241335 -0.13338156 -0.007566814
000140 4c 85 c5 3d 6e 52 91 bc 91 f6 40 bd aa 44 90 3d
       0.09644565 -0.0177395 -0.047110144 0.07044347
000150 09 8f e4 3c af 41 af bc 56 37 6d 3d 11 5b 38 3c
       0.027900236 -0.021393625 0.0579141 0.011252181
000160 55 61 3b bd 03 31 9e ba 6d 21 34 3d 28 30 cc 3b
       -0.04574712 -0.001206905 0.04397719 0.0062313266
000170 fd 2e 13 bd 23 f5 49 3c 18 cb 78 bd b7 ed ba bc
       -0.035933483 0.012326512 -0.06074056 -0.02281843
000180 5d 2d 8c bd 37 50 75 3d 8f 03 d9 3c dd 44 92 3c
       -0.0684459 0.059890952 0.026490955 0.017855102
000190 98 08 93 3d 59 29 55 bd 2f 68 a3 39 f4 e5 bb bd
       0.071793735 -0.052041385 0.00031167406 -0.091747195
0001a0 f7 b2 fc 3c c6 5e 55 3d d8 96 1d 3d 52 18 ee bc
       0.030847056 0.052092336 0.038473934 -0.029064331
0001b0 6a fc d5 3b 9e 41 e4 3c 3a 25 84 bd a7 0e 67 bd
       0.0065303342 0.02786332 -0.06452413 -0.056410458
0001c0 83 3a 3c bd fa e0 93 bd a6 b0 89 39 f7 c5 1d bd
       -0.04595424 -0.07220645 0.0002626229 -0.038518872
0001d0 01 fd 54 bd 32 70 f3 3b 10 97 8b bd a8 64 5e 3c
       -0.051999096 0.007429146 -0.06815922 0.013573803
0001e0 53 7e 91 3c ce 0d 63 3d 19 66 1f 3d f6 cf 86 3d
       0.017760431 0.055433087 0.038915727 0.06582634
0001f0 b6 c0 3c b9 0c 43 96 3d f7 2a 0f b9 40 38 70 3c
       -0.00018000868 0.07337007 -0.00013653548 0.014661849
000200 d4 ec 87 3b 3f 90 87 3c 5d 54 95 3d b7 f3 a4 3d
       0.004148105 0.016548274 0.07291482 0.080542974
000210 21 94 1f 3d 62 e6 6a bd 7d 99 69 3c b9 fc 31 3b
       0.038959626 -0.057348616 0.014257786 0.002715869
000220 78 02 06 bd c7 d9 9b bd 05 20 22 3d da 39 28 3c
       -0.032717198 -0.07609897 0.039581317 0.010267699
000230 30 d8 07 3d 82 84 02 3d e7 07 82 3c 5f dc 16 bc
       0.033165157 0.03186465 0.015872909 -0.009207814
000240 c0 7d d6 bc 8b 62 15 3b 12 3e 61 bd dc 99 80 3c
       -0.02618301 0.0022794332 -0.054990835 0.015698366
000250 3e 74 7c 3d b2 2c c9 3d 83 96 cd bc 4a 12 05 bd
       0.061634295 0.09822978 -0.025096184 -0.032488145
000260 d9 b9 45 3c a7 11 c7 3c a6 dc fa bc 38 fe 0f bd
       0.012068235 0.02430041 -0.030622791 -0.03515455
000270 78 50 1d 3c b6 52 97 bc a4 ee be bc 9c da 16 3d
       0.009601705 -0.018472057 -0.023307152 0.036829576
000280 db 2f c8 bd 52 15 55 bd 86 15 0c be af 83 f7 bb
       -0.09774753 -0.052022286 -0.13680086 -0.0075535397
000290 81 03 8e 3d 81 8d 2c 3e 9e 6f 29 3e 6a 6f fd 3d
       0.06934262 0.16850854 0.16546485 0.12374766
0002a0 6c 4f 00 3e ff 77 9f 3d 0b 0a 24 bd 34 62 0a 3d
       0.12530297 0.07786559 -0.04004864 0.03378506
0002b0 13 5f 38 3d b7 34 12 3d 64 e3 f9 3b 74 75 9e bd
       0.045012545 0.035694804 0.007625984 -0.07737246
0002c0 fd c2 b8 bd df 1e 02 bb 97 5f c2 3c 4a 76 15 3d
       -0.09021566 -0.0019854826 0.023727221 0.036489762
0002d0 2f 33 01 3e be c0 ce 3d fc 85 03 3b 20 f3 92 bd
       0.12617181 0.100953564 0.0020068875 -0.07175279
0002e0 79 68 74 be 3c 6d 4c be 42 76 e9 3b 7d 70 9d 3d
       -0.23867978 -0.19963545 0.007124693 0.07687471
0002f0 bd 91 41 3e 61 20 88 3e 58 0f da 3d cd e3 ce 3d
       0.18903251 0.26587203 0.10647458 0.10102043
000300 c9 19 f8 bd 8c 4b 82 be be f5 73 be e5 f4 13 be
       -0.12114293 -0.25448263 -0.23824212 -0.14448889
000310 8f 43 68 3d a2 b9 4e 3e 91 7a aa 3d e1 5c 4b 3d
       0.056705054 0.20188001 0.08324159 0.049649123
000320 06 f7 e2 bd 1d 92 36 be 67 d4 a2 be 97 ac 80 be
       -0.11082272 -0.17829175 -0.31802675 -0.25131676
000330 94 4b 81 be 6d 8c 5d bd 49 2b ed 3d 1c 8d 26 3e
       -0.25252974 -0.054089 0.115805216 0.16264766
000340 3b 32 93 bc 07 43 1a 3d cf aa d7 bc 4b 80 36 be
       -0.017968288 0.03766158 -0.026326565 -0.17822377
000350 89 f5 6e be 41 cd 0a be 0d 22 d9 bc f2 1c 7a 3d
       -0.23335852 -0.1355486 -0.026505494 0.06106276
000360 41 15 04 3d 0e ae 42 bc e5 c9 3f 3c 82 3f 1e bd
       0.03224683 -0.011882318 0.01170585 -0.038634785
000370 55 ca c9 bd d9 17 42 3c 24 84 72 bc 97 a4 a7 bd
       -0.09853045 0.011846506 -0.014802013 -0.0818569
000380 d4 33 64 3d 89 4d 90 bc b5 2b af 3c ff 90 ac bc
       0.05571349 -0.017615097 0.021383146 -0.021065233
000390 93 3f bf 3d cf b7 8b 39 96 86 37 3c 4f ef e1 3a
       0.09338298 0.00026649094 0.011201521 0.0017237457
0003a0 d6 d4 80 3d 28 e5 32 3c 17 6c 87 bd 05 51 e0 3a
       0.06290595 0.010918893 -0.066124134 0.001711399
0003b0 81 cc 00 b9 11 26 94 3d 58 df cb 3d 3a a0 0f 3e
       -0.00012283215 0.07233823 0.09954709 0.14025965
0003c0 54 e4 d6 3d e1 8f 97 3d 7d 67 2d 3d 62 01 96 3d
       0.10492769 0.074004896 0.042335022 0.073244825
0003d0 c8 48 ba 3d b0 7e 7e 3d 07 70 b3 3d b1 87 1b 3e
       0.09095913 0.062132537 0.08761602 0.15188481
0003e0 54 24 09 3e a8 e1 b6 3d 85 d4 86 3d 75 41 04 3e
       0.13392764 0.08929759 0.06583504 0.12915595
0003f0 23 a0 47 bd 4d d4 1c 3d d5 a4 54 bc b1 26 33 bd
       -0.048736703 0.038288403 -0.012978752 -0.04373807

conv1.bias f4 [128]
000000 b0 52 b1 3d aa 8f 2a be fd 6f e0 3b 20 73 fc bc
       0.086583495 -0.16656366 0.0068492875 -0.030816615
000010 88 4d 16 bd 10 0f 4a bd ef 51 5e bd ac ad 87 bd
       -0.036695033 -0.04933077 -0.054277357 -0.06624922
000020 33 a0 b0 bd 50 b9 7b bd 38 d0 03 be b3 fe c6 bd
       -0.086243056 -0.061456025 -0.12872398 -0.09716549
000030 60 e3 32 bd 0a f2 aa 3c 98 91 33 be 01 c3 d1 be
       -0.043673873 0.020867366 -0.17536008 -0.4096909
000040 98 5d 52 3d 97 30 ed bc 5d c4 71 bd fe 0d bf bd
       0.05135879 -0.028953834 -0.059025157 -0.09328841
000050 fb 43 be 3d 04 e7 49 bd 38 48 9a 3d e2 5b df bc
       0.0929031 -0.04929258 0.07533306 -0.027265493
000060 64 79 d5 be 13 b4 e0 bd 85 6c 8e bd f7 17 e0 bd
       -0.41694176 -0.109718464 -0.06954292 -0.10942071
000070 30 8c a3 3c e3 f5 32 be ab cc 8a bd 5b 2d bf 3c
       0.019964308 -0.17476611 -0.067773186 0.023337057
000080 35 23 ac bb dd b3 ba 3c a1 c6 e9 3c db 81 57 be
       -0.0052532204 0.022790844 0.028537096 -0.2104563
000090 65 da 8c bd 69 07 84 bc 8c 00 80 be a8 9f 68 3d
       -0.06877593 -0.016116815 -0.25000417 0.056792885
0000a0 ea ba d5 3d 66 72 37 bd fc dc 53 bd cc 30 6f bc
       0.10436042 -0.044786833 -0.05172442 -0.014599036
0000b0 e9 9b c5 bd 0a f9 33 be f1 01 66 bd 12 16 38 bd
       -0.09648878 -0.1757547 -0.056154195 -0.044942923
0000c0 ef a2 db bc c9 e7 d6 3c c4 9e 24 bd 91 cd 40 bd
       -0.026811091 0.02623357 -0.040190473 -0.047071043
0000d0 c6 00 9d 37 2a 3c 1b 3e 02 f1 b5 3c 5f c6 ea bc
       1.8716219e-05 0.1515967 0.022209648 -0.028659044
0000e0 6f e9 11 bc 57 27 88 bc 11 62 51 3d 56 67 50 be
       -0.008905753 -0.016620321 0.051118914 -0.2035192
0000f0 12 e2 c7 bc ca c0 94 bc 32 98 ca bb 57 aa a0 3d
       -0.02439979 -0.018158335 -0.006182694 0.0784499
000100 a1 d0 7a bd e2 af fb bc 93 4e 20 3d 66 fd 91 3c
       -0.06123412 -0.030723516 0.039137434 0.017821025
000110 c2 22 26 bb 08 36 66 be b1 6e 24 ba 5c 34 0d bd
       -0.0025350307 -0.22481549 -0.0006272598 -0.034473762
000120 54 f4 e4 bc 51 31 52 be 21 53 10 bd fb 13 19 bc
       -0.027948536 -0.20526625 -0.035235528 -0.009343143
000130 c4 02 8f be 42 62 a5 bd 0c 56 c2 3c 00 13 2b bd
       -0.27931798 -0.08075382 0.023722671 -0.041766167
000140 5e fe e3 bd a2 1b 06 bd f7 17 cb bc d9 09 67 bc
       -0.11132501 -0.032741196 -0.0247917 -0.014101469
000150 50 66 0b be 81 08 9a be fd 12 e7 bc 50 f5 9a be
       -0.13613248 -0.30084613 -0.028207297 -0.30265284
000160 10 2b 69 bd 3a ae 90 bd e3 7d 64 be 8b 41 e7 3c
       -0.056925833 -0.07064481 -0.22313647 0.028229496
000170 33 f3 42 bd 12 b3 88 bd 94 f5 e0 3d 05 69 98 be
       -0.047595214 -0.0667478 0.1098434 -0.29767624
000180 6d da 44 bd c3 ef 9f bc bc 8c 91 be 20 eb 27 be
       -0.04805987 -0.019523507 -0.28427684 -0.16398287
000190 50 c1 f7 be 06 23 1a bc e4 a4 01 be c1 52 1c bd
       -0.48389673 -0.009407764 -0.12660557 -0.038164858
0001a0 f4 27 18 be 02 69 82 bd f4 54 4b bd ca 19 c1 be
       -0.14858991 -0.06367685 -0.049641564 -0.37714988
0001b0 7e 64 1b be 1a 38 55 be fb c4 29 bd be 79 ba bc
       -0.15175053 -0.20822182 -0.04144762 -0.02276313
0001c0 df bb 68 bd 8b a1 46 bd 32 37 5b bd 7d 09 9c bc
       -0.056819793 -0.048493903 -0.053519435 -0.019047493
0001d0 0b c9 4d bd 84 78 18 3d da 8b 0b bd ea b9 1b bc
       -0.050240558 0.037224308 -0.03406892 -0.009504775
0001e0 6e d9 4d bc ea f8 98 bc b1 b2 94 3d 9a 22 83 3d
       -0.012564046 -0.018673379 0.07260645 0.06403084
0001f0 ac 91 01 bd a0 aa 7f bd 74 9b 79 3e 0e bb eb bd
       -0.031633064 -0.06241858 0.24375707 -0.11510287

conv2.weight f4 [64, 128, 5, 5]
000000 98 f3 93 bb db 62 a3 bc 32 0d 4c bc ae 19 a4 3b
       -0.0045151226 -0.019944599 -0.012454318 0.005007944
000010 b7 35 9d 3b 4a e1 a3 bc ad 76 0f bc fb b6 5a bb
       0.004797663 -0.020004887 -0.008756322 -0.0033373225
000020 0b 92 99 bc 5f 95 ef bb 69 b1 e6 3b 80 63 8f bc
       -0.018746397 -0.0073115076 0.007040192 -0.0175035
000030 f8 c3 46 bc 94 9b 8e bb f8 27 35 3c e8 00 26 bc
       -0.0121316835 -0.0043520425 0.011056893 -0.010132052
000040 93 4d b7 3b 3f 0a 90 bc 31 16 28 bc 35 73 26 3b
       0.0055939644 -0.01758301 -0.010259197 0.0025398259
000050 bd 06 19 3a 06 fa 66 bc 4a c4 8a bc 1d ba dd 3b
       0.0005837491 -0.014097696 -0.016939301 0.006766571
000060 05 6e b5 bc 5f d8 99 bc bc df 08 3c b0 bf 10 3c
       -0.022147188 -0.018779932 0.008354124 0.008834764
000070 e4 b4 0d 3c 0f 2c 1c bc e5 50 54 bb da 0e 29 bc
       0.008649085 -0.009531989 -0.003239685 -0.010318482
000080 1d 6f 13 3c 73 d1 aa bc b8 0e c1 3a d2 01 65 bc
       0.008998659 -0.020851826 0.0014729118 -0.013977485
000090 7f 0e 5d bc 79 fc 89 bc fb 41 35 3c f8 0c 9d 37
       -0.013492226 -0.016844021 0.011063094 1.8721898e-05
0000a0 1f a3 b1 bc 53 37 0f 3c c6 63 8e bc 7c dd d1 bb
       -0.021684228 0.008741218 -0.01738156 -0.006404577
0000b0 57 a3 59 bc e9 e7 11 bc 45 f6 2c 3c 34 8a a2 3b
       -0.013283572 -0.008905389 0.010556762 0.0049603228
0000c0 a6 ae 93 3a ea 7e b2 ba 5f 69 1d 3b be f9 ac bc
       0.0011267259 -0.0013618146 0.0024019105 -0.02111518
0000d0 66 6f b3 3b 54 00 8d bb 4f 79 f7 bb 48 90 8d bc
       0.005475926 -0.0043030176 -0.007552303 -0.017280713
0000e0 1d 7d ae ba 55 8e f6 bb 64 da 83 3b 88 24 1e 3a
       -0.0013312433 -0.0075242915 0.004023837 0.0006032665
0000f0 db 72 e0 ba 2c df b2 bc 12 e4 ac bc eb 53 1e bc
       -0.0017124073 -0.021834932 -0.021104846 -0.009663562
000100 39 8f ba bc d5 3c 42 bb a6 fc 0d bc 1d 06 fa 3b
       -0.022773372 -0.002963831 -0.008666193 0.0076301233
000110 be bd ba bc 74 3f 1f 3c 70 91 95 3b 25 f8 ee bb
       -0.022795554 0.009719718 0.0045644566 -0.0072927647
000120 08 33 cd 3b cb 09 a4 bc 8e 02 c0 bc 77 9b 0d bb
       0.006262187 -0.0200242 -0.023438718 -0.0021607557
000130 24 2f f9 bb 25 a6 8d bc fd 38 90 bc 30 1e 0e 3b
       -0.0076044966 -0.017291138 -0.0176053 0.0021685474
000140 7a 13 6f 3a 45 68 8d bb c9 37 54 bc 4c 58 7f bb
       0.00091200287 -0.0043154084 -0.012952753 -0.003896254
000150 7e 7a ce 3b 32 96 75 3a 76 9b 3c 3c 9b c6 95 bc
       0.0063012233 0.0009368389 0.011511674 -0.018283179
000160 bb 34 dc b8 41 0a 3c 3c a0 9f f0 bb 0a 1a ae bc
       -0.00010500239 0.011477054 -0.0073432475 -0.02125265
000170 7d c6 84 bc 36 6d dc 3b 31 f0 ef bb 4f c1 83 3b
       -0.016207928 0.006726886 -0.007322334 0.004020847
000180 a1 de d9 bb 17 07 17 3c 3a bc f6 3b 64 39 30 3c
       -0.006648854 0.009217999 0.0075297626 0.0107558705
000190 26 53 8b bc 7d dd 0b bc 75 91 f4 3b 6e 4d a1 bc
       -0.017007422 -0.008536694 0.007463629 -0.019690242
0001a0 77 c2 ea 3b 62 e9 6b 3b 16 cd b5 3b d0 62 8e bc
       0.0071642953 0.0035997261 0.00554813 -0.017381102
0001b0 54 9f 94 bb 0e 95 85 bc 95 c6 e3 3a d1 d8 3e 3b
       -0.004535595 -0.016306426 0.0017377908 0.0029120932
0001c0 52 90 8c bc f3 2d 5c 3b 59 e6 3c 3b 14 c0 1e bc
       -0.017158661 0.0033596724 0.0028823821 -0.00968935
0001d0 c4 f4 62 b9 6a 99 8b bb 57 99 87 3b cc 01 a9 bc
       -0.00021644222 -0.0042602317 0.0041381526 -0.02063074
0001e0 10 8f 88 bc 6c 60 e2 39 7e c4 17 bc fb 91 cb 3b
       -0.01666978 0.0004317792 -0.009263156 0.0062124706
0001f0 9d 66 c1 39 86 c7 25 bc 07 62 07 bc 95 be eb bb
       0.00036888281 -0.010118371 -0.008263118 -0.00719435
000200 47 d8 06 3c 19 14 eb 3b 04 66 23 bc a2 53 bc bc
       0.0082302755 0.0071740267 -0.009973053 -0.022989098
000210 94 06 ac bc 72 9c 3e 3c 93 cb ac bb 0e 91 bf bc
       -0.02099923 0.011633979 -0.0052732914 -0.023384597
000220 3e 64 b2 bc b4 ff 3d bb 66 60 b6 bc 41 93 6f bb
       -0.021776315 -0.0028991522 -0.022262763 -0.0036556276
000230 40 b0 74 3b 85 d0 35 3b e8 4c 24 bb ae d0 0c 3c
       0.0037336498 0.0027742696 -0.0025070254 0.008594675
000240 3b 01 98 bc 12 52 cb 3b 39 55 23 3c 83 2f f7 3b
       -0.018555274 0.006204852 0.009969049 0.0075435056
000250 bf 4c 8c 3b 49 1c 1e 3c 9b d3 32 3c f8 3f 16 3c
       0.00428161 0.009650298 0.0109147085 0.009170525
000260 47 c9 92 bc 3c 5f d1 ba fe 78 9c bc e4 f0 2f bb
       -0.017918242 -0.0015973817 -0.019100662 -0.0026846463
000270 b9 35 97 bc 51 9e 6a 3b a8 3a 30 bc 14 0f a7 bc
       -0.018458234 0.003579993 -0.010756172 -0.020392932
000280 74 da b2 bc ab 14 19 bc 92 f0 08 3c d8 92 c3 3b
       -0.021832682 -0.0093433065 0.008358138 0.005968433
000290 97 c2 cd bb 13 9a fe bb f3 a0 ff 3b 31 2d fa 3b
       -0.0062793004 -0.007769832 0.007801169 0.0076347818
0002a0 6a 62 66 bb b3 72 18 3c 44 33 05 3c 42 54 ee ba
       -0.0035153874 0.00930469 0.008129898 -0.001818307
0002b0 3a f5 a0 bc 49 39 7b bc 67 00 a3 bb 6d fc 2b 3c
       -0.019648183 -0.015333482 -0.004974413 0.010497195
0002c0 be a6 5d ba 3a 71 26 3c b0 17 93 bb fd ee 86 3a
       -0.00084553275 0.010158831 -0.0044889078 0.0010294613
0002d0 6a f0 6c 3a 50 1b bb bc ed de b0 3b 78 ad 21 3c
       0.000903851 -0.022840172 0.0053976686 0.009868018
0002e0 36 70 91 3a a9 6e fa bb 13 e8 fa bb 67 8b 9b 3b
       0.0011096064 -0.0076425862 -0.00765706 0.0047468427
0002f0 fb 17 fa 3b 02 91 1d 3c 65 a1 ae bc 0b 86 14 bc
       0.007632253 0.009617092 -0.021317193 -0.009065161
000300 25 63 09 3c 75 11 ef 3b e2 4b 50 bb 31 a1 dc 3a
       0.008385454 0.007295782 -0.003178351 0.0016832707
000310 90 d0 b0 bc ac 80 9e ba 9f 3e 4b bc c6 ac ac bc
       -0.021583825 -0.001209279 -0.012405067 -0.021078479
000320 7d 5e f1 3b 39 b3 83 bc cf 77 2f 3c 03 8d 23 bb
       0.007366 -0.016076671 0.010709717 -0.0024955876
000330 16 aa a1 bc 9c f5 b9 bc b3 a9 e2 3b 6f f3 4c ba
       -0.019734424 -0.022700123 0.0069172024 -0.0007818257
000340 a3 d6 b7 bc e2 c1 ab 3b 88 b5 b7 bc 8d 6e e8 3b
       -0.022441214 0.0052416185 -0.022425428 0.007093257
000350 af 00 70 3b 93 09 a4 bc 8d f9 e8 3a 94 68 90 3b
       0.0036621501 -0.020024097 0.0017774567 0.004406998
000360 a0 b5 5c bc eb b7 94 bb 80 90 86 3b c1 f6 1b bc
       -0.013471037 -0.0045385263 0.004106581 -0.00951928
000370 03 81 3e bc 47 72 09 3b 5c 81 bc bc d2 2d 5d bc
       -0.0116274385 0.0020972656 -0.023010902 -0.013499694
000380 0f 55 70 bc 09 6f 82 bc bf 94 9b ba d3 cc bc bc
       -0.014668717 -0.015922086 -0.0011869891 -0.023046887
000390 4a 2b 0d 3c 56 c8 bf bc a0 b1 6d 3b a0 55 9b bb
       0.008616278 -0.023410957 0.0036269203 -0.004740432
0003a0 3c a1 4d bc 06 ea 1b 3a 06 d0 28 bb 90 e6 97 bc
       -0.012550648 0.0005947653 -0.0025758757 -0.018542558
0003b0 8f d4 a0 bc 91 44 10 bc 00 d4 de 3b b8 c9 7b bc
       -0.019632606 -0.00880541 0.0068001747 -0.015367918
0003c0 8c 63 e0 3b dd 0a 14 bb aa 85 3e bc b3 d8 c3 bb
       0.0068478044 -0.0022589483 -0.011628548 -0.0059767603
0003d0 91 fe 18 3c b9 ac 9c bb 66 e4 b4 bb bf e9 35 3c
       0.009338037 -0.0047813323 -0.0055203913 0.011103093
0003e0 08 5c 96 bc 9b 9f 4c bc ff 26 4b bc 4d fd 01 bc
       -0.01835443 -0.012489225 -0.012399434 -0.007933927
0003f0 c7 1a f6 bb 14 c2 2d 3c 58 aa 13 bc f9 50 af bc
       -0.0075105163 0.010605354 -0.009012781 -0.021400915

conv2.bias f4 [64]
000000 b6 6a 3e bc 1a 43 60 bc 3c c2 3e bd 24 cb 86 bd
       -0.011622122 -0.013687873 -0.046571955 -0.06581715
000010 8e d7 60 bd a3 d6 c6 bd b7 09 75 3a d8 22 6c 3e
       -0.05489307 -0.097089075 0.0009347456 0.23060167
000020 76 3c 87 bb 39 99 15 3c 48 79 3a 3c 50 ea 5e 3a
       -0.0041270806 0.009130769 0.011381455 0.0008503543
000030 1e a5 90 be 13 cb aa bc 1f 9c ce bc f1 1f 9d bc
       -0.28250974 -0.020848786 -0.025220929 -0.01918027
000040 e0 c7 14 3c 1d be 77 3d b0 11 df bc bc fe 7e bc
       0.009080857 0.06048404 -0.027230114 -0.015563663
000050 09 c1 9c bd aa 74 8c 3e 27 7f 63 bc 5e f1 69 3d
       -0.07654006 0.27432758 -0.013885296 0.05711495
000060 74 f7 3f bd be 5d 6a 3b ca 9c a3 bc ea 75 91 bc
       -0.04686685 0.003576144 -0.019972224 -0.017756421
000070 65 0a 98 bc 52 df 2b bd f5 ac 9a 3d ee b3 8b bc
       -0.018559644 -0.04196102 0.0755252 -0.01705357
000080 9b 73 87 bc 90 c0 a4 bc b9 56 1b 3c c4 a6 97 bd
       -0.016534617 -0.020111352 0.0094811255 -0.07404855
000090 06 fc 99 bb 51 fd b6 bb 36 59 4f bc 37 42 03 bd
       -0.004699233 -0.005584397 -0.012655547 -0.03204557
0000a0 2d cd e1 3b 28 fa fb bc 76 49 6e bd 70 e4 a0 3d
       0.006890914 -0.030758932 -0.058175527 0.07856071
0000b0 fa ec 22 bd 53 cf a8 3b 2a e0 1e bd 36 55 5e 3d
       -0.03977678 0.005151668 -0.038788 0.054280482
0000c0 b7 0f 88 bc 43 cb f4 3b e0 f1 9a bc 7d 94 33 3c
       -0.016609056 0.0074705197 -0.018914163 0.010960695
0000d0 18 8d 87 3d d9 47 29 bd 39 62 1b bd c5 a5 72 be
       0.06618708 -0.041328285 -0.03793547 -0.23696049
0000e0 1d a0 9d bc c2 80 52 bc 9f 02 d7 3d 38 0e 97 bb
       -0.019241387 -0.012848081 0.10498547 -0.0046098493
0000f0 57 36 1a 3c 40 5d b8 bd 4b 0d 31 bc b7 0f 9d bd
       0.00941237 -0.09002161 -0.010806392 -0.07669013

conv3.weight f4 [3, 64, 5, 5]
000000 7b 7e 15 3b d0 1c 68 bc aa 9f 54 bc 96 39 a6 3b
       0.0022810984 -0.014167026 -0.01297752 0.0050727827
000010 05 8b 26 bc 2c e2 cd ba 8a 0c 00 3c c6 dc 86 bb
       -0.010164981 -0.0015707663 0.00781549 -0.0041156737
000020 15 af 0c 3c 99 78 0a 3c bc 1a 8a 3c c4 14 37 bc
       0.008586665 0.008451604 0.016858451 -0.0111743845
000030 e7 53 d7 3c 27 48 f6 3c d9 e2 4c bb b8 f5 37 bc
       0.026285125 0.030063702 -0.0031263141 -0.0112280175
000040 02 7c 22 bc e8 99 73 bc dc bf a2 3c 5d fb 2c 3c
       -0.009917261 -0.014868237 0.019866876 0.010557977
000050 5e 4d 23 bb 93 ac ba 3b 2e bd 6a bc 66 b5 e1 bb
       -0.002491794 0.005696842 -0.0143273305 -0.0068880795
000060 27 93 68 3c 2e 73 79 bb c4 c9 1b bb b6 b6 e9 3b
       0.01419524 -0.0038063037 -0.0023771385 0.0071323765
000070 86 a7 07 3b 5c 41 6e 3b 8f 89 13 bb cd a1 2b 3b
       0.0020699217 0.0036354875 -0.0022512411 0.002618897
000080 58 d3 31 3b 42 f7 30 3c 1a 3b 2e 3c 41 ef b9 3a
       0.0027134027 0.010801138 0.010634208 0.0014185683
000090 34 f9 86 3a df 9f ff bb c9 b6 0c 3c 8b a4 47 3c
       0.0010297657 -0.0078010405 0.008588501 0.012185226
0000a0 81 cc ed 3b 4e 7e 89 3b f1 fc e4 bb d4 12 4a bc
       0.007257045 0.004195965 -0.006988161 -0.012333591
0000b0 a2 a3 3b bb c4 7e cb 3b 0c 11 8c 3b 38 47 b8 ba
       -0.0028631468 0.00621018 0.004274493 -0.0014059311
0000c0 9a 44 c3 bc e8 99 da bc b8 89 8e 3c 78 91 eb bc
       -0.023836423 -0.026684716 0.017399654 -0.028755888
0000d0 a4 63 56 3b ad 71 28 3d d8 da af 3b dc 1f 8b bd
       0.00327132 0.041124035 0.0053666644 -0.06793186
0000e0 1d 3c 96 bd 2e 22 c5 3b 6f 7a 27 3d 35 1e 61 bd
       -0.073356844 0.0060160374 0.040888246 -0.05496045
0000f0 0e 30 df 3c be ce 48 3c 41 96 55 bc 2c 93 7f bc
       0.027244594 0.012256322 -0.013036312 -0.015599053
000100 15 b6 e8 3c a6 54 e7 3b b1 4c 7e 3c 19 b2 07 bd
       0.028407136 0.0070596514 0.015521214 -0.03312883
000110 fe 49 3b bd f7 4f d8 bb dd 32 5d 3c 25 f8 8d 3c
       -0.04572486 -0.0066013294 0.013500896 0.017330239
000120 e2 d2 af bc 21 e4 1e bd ed 02 44 bb 1c ec 06 bd
       -0.021462861 -0.03879178 -0.002990897 -0.032940015
000130 c1 f6 ed 3b f3 8f 9b 3a 8d 36 0a 3a 9d d9 5d 3b
       0.0072620814 0.0011868462 0.0005272411 0.0033851631
000140 75 19 ce bc 75 71 4b bc 78 b8 0d bb 42 80 9b bc
       -0.025158623 -0.012417187 -0.0021624845 -0.018982057
000150 bb 0d 4a 3b 3a be ce 3c 43 b5 36 bc d0 2f 0e bd
       0.0030830938 0.025237191 -0.011151615 -0.034713566
000160 5c 26 6c bc c7 27 a2 3c 8a 2c a7 3b d1 f8 0b bd
       -0.014413442 0.019794358 0.005101745 -0.034172837
000170 ba 70 13 bc c8 d9 fa bc 11 fd 59 bc c3 f4 26 3d
       -0.008999044 -0.030621424 -0.013304965 0.040760767
000180 1f ab 91 bb ed 27 16 bd ab d5 3b bd 91 de 17 bd
       -0.004445448 -0.03665917 -0.045858067 -0.03707749
000190 e9 6b 03 bc 99 c7 82 bb a8 59 02 bd cd 75 fb bc
       -0.008021333 -0.003991079 -0.031823784 -0.03069582
0001a0 46 d8 21 bd e3 df 06 bd 19 3b 91 bb 07 71 26 bd
       -0.039512895 -0.03292836 -0.004432094 -0.040635135
0001b0 ef e1 b9 bc 39 2b 3e bc d2 b9 39 bd 8a a4 20 bd
       -0.022690741 -0.011606985 -0.045343228 -0.039219417
0001c0 ea 66 e5 3b 93 4e 17 bd d8 65 94 bc 5c 97 9c bc
       0.0070007937 -0.03694017 -0.01811497 -0.019115143
0001d0 43 4c cc bc 24 76 f6 bc 2f 5d ef bb 3f 4b 87 bc
       -0.024938708 -0.03008563 -0.0073048095 -0.016515372
0001e0 82 67 4e bc c8 97 9a bc 97 f9 9a bb 04 0d 37 bc
       -0.01259792 -0.018871203 -0.0047294605 -0.011172537
0001f0 b9 f9 c0 bc 1a af b1 3c 30 38 7b bb 23 5d 4b bc
       -0.023556577 0.02168994 -0.003833305 -0.012412342
000200 92 49 4f 3d b3 f1 8a b9 6e c2 65 3c ad c1 f8 3b
       0.05060727 -0.0002650149 0.014023406 0.0075914473
000210 e4 83 5c bc 11 c3 8b bc c4 e9 20 bd 41 82 89 bc
       -0.01345918 -0.017060788 -0.039285436 -0.016785743
000220 8c d1 b8 bb c8 b7 87 bc d8 43 6e bd f9 07 68 bd
       -0.0056402143 -0.016567126 -0.05817017 -0.05664823
000230 00 e7 3f 3c 2b 95 ae 3b 7c 80 43 3b ea e7 cd bc
       0.01171279 0.005327841 0.0029831221 -0.025135
000240 da 55 a1 3c 10 5f cf ba 14 bf 67 3b e4 78 d6 bb
       0.019694258 -0.0015821178 0.0035361694 -0.006545173
000250 4e 57 8b bb 0d 36 a7 3c 7e 22 c0 bc 6f a7 a1 bc
       -0.004252351 0.020411516 -0.023453947 -0.019733159
000260 51 74 ea 3b 95 31 b1 bc 6c 16 9d 3a 48 e1 5d 3c
       0.0071549793 -0.021630088 0.0011984832 0.013542481
000270 4c 6a 9a 3c c1 2f 9f 3c 0e 65 5c 3c f2 fc 80 3c
       0.018849514 0.01943195 0.013451828 0.015745614
000280 15 59 95 3b f0 e3 5d bc e8 8b 59 3c 44 b7 b3 3b
       0.0045577385 -0.013543114 0.013277985 0.0054844934
000290 78 c5 ef bb 2e 8d c9 bc db 3e 77 bc b1 c5 a0 bb
       -0.0073172413 -0.024603453 -0.0150906695 -0.004906379
0002a0 57 dc 7c bc 44 ec e8 bc d7 90 86 bc 41 07 2c bc
       -0.0154333925 -0.028432973 -0.016426487 -0.010499776
0002b0 1b 14 ff 3b 58 e4 70 3c f7 fc a4 3c 2b ce bb 3a
       0.007784379 0.014702879 0.020140154 0.0014328411
0002c0 98 a2 06 3b 1d 51 04 3b 1b f0 50 bc b6 f0 55 bc
       0.002054369 0.002018995 -0.012752558 -0.013057878
0002d0 6d 39 81 3b 56 e0 8c 3b e0 12 3f 3c 2b f9 80 3c
       0.0039436133 0.004299204 0.011662215 0.015743813
0002e0 01 7a 9a bc 04 d2 d1 3b a2 43 dc 3b ec 99 91 3c
       -0.018857004 0.0064032096 0.0067219296 0.017773591
0002f0 27 c6 a6 3c 2e 03 b9 bc cc ca 64 3b cb 26 15 3c
       0.020358158 -0.022584524 0.0034910915 0.009103487
000300 c6 c2 39 3c a1 e0 56 bc a4 18 8f bc ed 85 cd bb
       0.0113379415 -0.013115079 -0.017467804 -0.0062720687
000310 9d be cf ba 03 50 5e bc 47 bc 6c bc b9 03 02 3c
       -0.0015849654 -0.013568881 -0.014449186 0.007935458
000320 c6 11 aa 3c 7d 1e 77 3c a3 bc 7f 3a e1 32 70 bc
       0.020760428 0.015082953 0.0009755587 -0.014660568
000330 f4 b0 dc 3a 32 c2 f7 3b e8 e5 aa 3c 76 2c 8c bc
       0.0016837404 0.0075609917 0.020861581 -0.017111044
000340 a8 79 8a 3c 9d 5d fa 3c 6b 87 e4 3b 8d 78 3a 3c
       0.016903713 0.030562216 0.006974151 0.011381281
000350 84 65 ea bb 54 5b 57 bc 20 c2 41 3c 2f b3 4a 3a
       -0.007153215 -0.013144333 0.011826068 0.0007732389
000360 a5 8f 7c bb 37 50 87 bc 32 48 55 3c 52 bc 4b bc
       -0.0038537767 -0.016517742 0.013017701 -0.012435036
000370 f9 53 c3 3c 50 cd f9 3c 3e d8 25 3c f6 12 a6 3c
       0.023843752 0.030493408 0.010122357 0.020272713
000380 46 e7 49 3c df 0b 6b 3c 71 48 5d 3d 97 32 8f 3d
       0.012323206 0.014346092 0.054024164 0.06992071
000390 61 09 23 3d c1 33 d7 bb 61 7b 0b 3d 5f 7d 7a 3d
       0.039803866 -0.006567449 0.03405321 0.06115472
0003a0 89 ab 81 3d f7 69 70 3d c4 a6 c7 3c c3 d0 a7 3c
       0.06331546 0.058694806 0.024371512 0.020485288
0003b0 60 14 39 3d 01 4f 8e 3d a2 b4 90 3d e0 e9 a3 3c
       0.045185447 0.069486625 0.07065703 0.020008981
0003c0 3a 6b b0 3b b1 80 32 3c 2b 4e 20 3d 64 69 fc 3c
       0.005383876 0.01089494 0.039137047 0.030811973
0003d0 4c 11 73 3c b2 15 fe bc 58 c7 e8 3a ff 0f 89 bc
       0.014835667 -0.031016205 0.0017759604 -0.01673126
0003e0 e7 8f 63 3c 6a 95 d8 bc 21 67 e9 3c 5f 92 40 bb
       0.013889289 -0.026438434 0.028491559 -0.002938412
0003f0 4a e6 66 3c 6e 93 f7 ba 98 35 77 3b 4d 9a 3b bb
       0.014092991 -0.0018888542 0.0037721153 -0.0028625906

conv3.bias f4 [3]
000000 70 d0 5a 3b c4 04 cd bc 03 7c 40 3b
       0.0033388399 -0.025026686 0.0029370792
